app/confidence_model.tflite (tflite, 12584 bytes, 5 tensors)

arith.constant f4 [64]
000000 79 cf 04 3e 7e 77 9a bd 13 07 3a 3d f9 68 34 bd
       0.1296977 -0.075423226 0.045416903 -0.044045422
000010 75 88 7a 3d 12 e7 72 3d e7 49 d4 bd 45 70 07 3e
       0.06116529 0.059302397 -0.10365658 0.13226421
000020 82 27 88 bc c3 2a 63 3d e5 0d 8a bd c7 a0 b6 3c
       -0.016620401 0.055460703 -0.067409314 0.022293461
000030 9c 2c 81 3d fe 60 e5 bc 97 95 bd 3d 8a f1 78 bc
       0.06307337 -0.028000351 0.092570476 -0.015194306
000040 8e e3 bb bd b8 82 92 bc 25 34 50 bd 02 6d d1 bc
       -0.09174262 -0.017884597 -0.05083098 -0.025564674
000050 c1 de df bd 43 42 df 3d 2e f1 bb 3d 4c f9 46 3d
       -0.10931159 0.1090131 0.09176861 0.04857759
000060 81 ce be 3d 42 80 24 3d 7a 3a 59 3d 8f cd 95 3d
       0.09316731 0.04016138 0.053034283 0.07314598
000070 dd 8d 7b 3d 11 21 32 3d 3f f9 94 bd d9 46 94 3d
       0.06141459 0.043488566 -0.072741024 0.072400756
000080 b1 ed 2e 3d 60 5f 38 3d 39 21 1e 3d 05 48 a8 bd
       0.04270715 0.04501283 0.038605902 -0.08216862
000090 fc d9 ba 3d 4e 92 2a 3d eb 76 bc 3d 94 91 e1 3c
       0.091236085 0.041643433 0.09202369 0.027535237
0000a0 c5 f8 c9 bd 8d 1b 71 bd cf f8 83 bd ef 19 b9 bd
       -0.09861902 -0.058864165 -0.06443941 -0.090381496
0000b0 65 48 c1 3d f3 29 92 ba ac 46 e7 3d 4e 67 5a bd
       0.09437636 -0.0011151418 0.112927765 -0.053321175
0000c0 8d 5f 7e 3d 7a e3 27 bd bc a2 b4 bc 40 de 9e 3d
       0.062102843 -0.040988423 -0.022050254 0.077572346
0000d0 ba 01 f5 3d 5b 58 61 3d 5b 78 2f 3d 15 03 a6 3d
       0.1196322 0.055015903 0.04283939 0.081060566
0000e0 d2 fd 0d 3e 7b 3c b0 3d df b8 c4 3d 30 ea bf 3b
       0.13866356 0.08605286 0.09605574 0.0058567747
0000f0 b2 c4 ce 3d 14 f8 dc bd ca ec 7b bc 41 a7 3b 3d
       0.100961104 -0.10789505 -0.015376279 0.045813803

arith.constant2 f4 [64, 1, 3, 1]
000000 73 4c 95 3d 64 91 c6 3d 5e ed c9 3c 51 aa 71 3c
       0.07289972 0.096957 0.024649318 0.014750079
000010 9a 12 e6 bb f2 48 89 3c 27 06 13 3e b1 5c 9b bd
       -0.0070212604 0.016758416 0.14357816 -0.07586039
000020 78 10 66 bc 7d c3 a2 bd f8 8c 16 3e 1e 8d 2b bd
       -0.014042012 -0.07947443 0.14702213 -0.041882627
000030 26 63 d6 3d b6 10 64 3d f4 5e de bd 65 ac 2b 3c
       0.1046813 0.05568 -0.108579546 0.010478114
000040 96 68 c6 bd c2 41 0d be 69 ee 37 be f9 44 e0 bd
       -0.09687917 -0.13794616 -0.1796204 -0.109506555
000050 e6 b3 7d bd 62 36 a4 3d 8d 42 d1 3d f7 a6 ba 3c
       -0.061939143 0.08018185 0.10217772 0.022784693
000060 26 4b e3 bd ea 13 d1 3d 31 66 68 3d 1d 07 f6 bb
       -0.11098318 0.102088764 0.056738082 -0.007508172
000070 e7 dc 97 3d e4 ee 10 be c2 c8 5a bd 71 cf a5 bc
       0.07415181 -0.1415363 -0.053414114 -0.020240517
000080 52 9d 11 be 60 b1 16 be 78 a8 e0 3c a5 51 e1 bc
       -0.14220169 -0.147161 0.027424082 -0.027504751
000090 aa e1 01 3e bc d8 81 3d db f0 0e 3d dc 07 8c bd
       0.1268374 0.06340167 0.034897666 -0.068374366
0000a0 2e 4d b4 3d 7c 43 9f 3d 57 5a b4 3d ad ab 7c bb
       0.08803783 0.077765435 0.088062935 -0.0038554475
0000b0 cd 9f c5 bd c5 24 5e bd ac 98 12 3e ec 5e ac bd
       -0.0964962 -0.054234285 0.14316052 -0.084165424
0000c0 1b 62 fb bd 4f cb ec bd 44 98 c3 3d 11 d7 56 3d
       -0.122745715 -0.115622155 0.09550527 0.052451197
0000d0 1d 61 90 3d ee 90 2b 3e 96 10 b4 3d 24 c0 2a bd
       0.07049773 0.16754505 0.08792226 -0.041687146
0000e0 99 cf 67 3d d6 09 07 3e 9d 7c 05 3e 86 cd 44 3d
       0.056594465 0.13187346 0.13035817 0.048047565
0000f0 89 78 a7 3b 92 be 0e be 46 ba ac 3d 30 c6 5e 3d
       0.0051108045 -0.13939884 0.08433966 0.054388225
000100 23 2c 8b 3d d2 54 39 3d 33 c7 5f bd 88 bf b9 bc
       0.06795528 0.045246907 -0.05463333 -0.022674337
000110 d2 6f 04 bd 32 d0 18 bd 8f 0a d2 bc d2 b4 32 be
       -0.032333203 -0.037307926 -0.0256398 -0.1745179
000120 a8 28 4a bd 4f d9 91 bd 50 6c 40 3d 19 c1 25 3e
       -0.04935518 -0.071215264 0.046978295 0.16186942
000130 48 4f 85 bc 17 0c e9 3d 12 a7 db bd 50 b9 1f be
       -0.016273156 0.11379259 -0.107252255 -0.15598035
000140 8a 86 c8 3d d3 86 f3 bc 91 a8 77 bd 10 b9 2c 3c
       0.09791286 -0.029727375 -0.06046349 0.010542169
000150 48 6c 20 be 10 66 43 bd 22 89 34 bc ff f8 00 3e
       -0.15666306 -0.047704756 -0.011019023 0.12594984
000160 0a 6b a9 bd b2 af 9e 3d 89 75 80 3d 12 5a 30 3d
       -0.08272369 0.07748355 0.06272418 0.043054648
000170 ba 2b 6a bd 18 fd b5 3d 4e b3 f7 3d 76 69 09 3e
       -0.057170607 0.088861644 0.120947465 0.13419136
000180 f1 98 21 3e 73 5c df 3d 96 9c ae bd 87 8b 68 3c
       0.15780999 0.10906305 -0.0852596 0.014193422
000190 44 5b 3a bd 7c 39 c6 bd 91 4f 14 be 3b 61 c7 3d
       -0.045497194 -0.09678933 -0.14483477 0.09735342
0001a0 fb f9 2c be 86 83 26 be 90 4c b6 bd a6 40 f6 bd
       -0.16892235 -0.1626111 -0.08901322 -0.120240495
0001b0 09 f0 ae 3d 56 ef ab 3d c2 23 2e 3d c6 00 07 be
       0.08541877 0.08395259 0.04251457 -0.13183889
0001c0 06 f8 a2 3d 2e 2a 0a 3e 68 a3 5d bd f3 33 29 be
       0.07957463 0.13492653 -0.054110914 -0.16523723
0001d0 76 b7 1d bd 60 cf 12 be 19 8b 9f ba 03 69 00 ba
       -0.03850504 -0.1433692 -0.0012172192 -0.00048984605
0001e0 e6 99 9c 3d 0e 45 a2 3d 00 bc 17 3e b2 bb 8a ba
       0.07646541 0.079233274 0.1481781 -0.0010584502
0001f0 63 ce 62 3d 45 2a 53 3d db d9 05 3e 42 fb 50 3d
       0.055372607 0.051553983 0.13071387 0.051020868
000200 ed 88 28 3d e7 b5 8a 3d 5a 19 2a be 2f 95 99 bd
       0.041146208 0.06772976 -0.16611233 -0.07499158
000210 72 42 c1 bd 6c 02 93 bd c4 c9 d0 3a 2f 10 6d bd
       -0.094365016 -0.07178196 0.0015929271 -0.057876762
000220 c8 00 40 bd 02 8d f8 bd a9 57 a0 bd 91 f8 51 bd
       -0.046875745 -0.1213627 -0.0782922 -0.051262442
000230 33 37 8a 3c 5e 3b 22 3b c6 bb 0a bd ce 61 14 3d
       0.016872024 0.0024754624 -0.03387048 0.036226086
000240 30 e6 f1 bd 16 1b 14 bd 19 f2 a0 3c 14 75 bb 3d
       -0.11811483 -0.036158644 0.019646691 0.0915319
000250 36 29 d3 3d eb f3 e5 3d cc e6 98 bd e8 fd d9 bb
       0.10310595 0.11228164 -0.07465896 -0.0066525824
000260 3b ed e7 3d 55 2e 06 bc d4 b8 de bd b9 4e 01 bd
       0.11324545 -0.008189757 -0.10875097 -0.031569216
000270 60 4c fa 3d a4 d1 ef 3d a8 78 66 3d 1b 36 34 3e
       0.122215986 0.11709908 0.05626741 0.17598765
000280 41 d3 67 3d 6b 96 95 3b 77 4d 0f 3e 98 75 13 be
       0.05659795 0.0045650504 0.13994394 -0.14400327
000290 01 69 ad 3d 66 64 c6 bd a1 bb 06 3e 8f b3 0d 3e
       0.084672935 -0.09687118 0.13157512 0.13838027
0002a0 14 16 fb 3d 32 e3 ec 3d 3b 12 ae 3d 54 43 a5 3c
       0.122600704 0.115667716 0.08499571 0.020173706
0002b0 a8 2d ba bb 8d 94 65 bb f6 77 f6 bd 44 44 97 bd
       -0.005681712 -0.003503117 -0.120345995 -0.073860675
0002c0 3d da b8 bc f3 50 48 3d 2b 31 f0 3c 2d 9b 1f bd
       -0.022565002 0.048905324 0.02932032 -0.038966347
0002d0 98 cc f5 3c d2 73 2c 3d b7 69 5d 3d 99 07 c6 bd
       0.030004784 0.042102642 0.054055896 -0.09669418
0002e0 7c 78 40 bc fe de 49 bd 8c 5e 98 bd eb 44 c5 3c
       -0.011747476 -0.049284928 -0.074399084 0.024080714
0002f0 eb e1 9d 3d 62 bb ac bd 5e d6 ce bd 8d e8 51 bd
       0.07709106 -0.08434178 -0.10099481 -0.05124717

arith.constant3 f4 [1, 32]
000000 6f 3f bb be 4e e3 78 3e 2f de 00 3d ff fc cf bd
       -0.36571833 0.2430546 0.03146189 -0.10155677
000010 70 e0 c7 be 32 7f 3f 3e f2 6d 4d bc 8a 0b 60 3e
       -0.3903842 0.18700865 -0.01253842 0.21879402
000020 1b f2 06 3e 9a 4b d8 3e 30 bc 50 3e e5 52 b3 3e
       0.13178293 0.4224518 0.20384288 0.3502418
000030 95 69 45 3e 8b b1 7c be 86 bc 4d be 86 da 32 be
       0.19278558 -0.24677102 -0.20091447 -0.17466173
000040 48 5e ca bd 70 eb fb bd dc a5 3c be 92 5c 9c 3e
       -0.09881264 -0.123007655 -0.18422645 0.30539376
000050 f7 52 0f 3e 9a 67 f2 bd 2d 66 3e 3e c2 fc b8 be
       0.13996492 -0.11836167 0.18593664 -0.3613034
000060 f8 eb af bd 41 10 f5 3d 46 69 36 3e 71 f7 87 3e
       -0.08589929 0.11965991 0.17813596 0.2655597
000070 d0 8e 89 be 39 55 37 3e 97 0c 5a bd ff 97 97 3e
       -0.2686677 0.17903604 -0.053234663 0.2960815

arith.constant4 f4 [32, 64]
000000 98 cd c0 bd d9 37 47 3e 88 11 96 be ca a2 fc 3a
       -0.09414214 0.19454898 -0.2931025 0.0019274589
000010 b3 db 2c 3e 8e 06 83 be 02 74 37 be 1c 60 3f be
       0.16880684 -0.25590938 -0.17915347 -0.18689007
000020 88 eb 53 3e 0b f3 30 be 50 6a 0e be 42 e8 6b 3d
       0.20695317 -0.17280214 -0.13907743 0.057594545
000030 62 11 49 3c 32 04 c2 bd 9b 86 7e 3d 34 76 4c 3c
       0.012272211 -0.094734564 0.06214009 0.012479354
000040 29 6f 2c 3e c8 b8 11 3e 01 44 4b 3e a5 bb 16 3e
       0.16839279 0.14230645 0.1985016 0.14720018
000050 8c 9f 65 3e 62 b6 61 3e 28 18 cd bd 28 79 5e 3e
       0.22424144 0.2204223 -0.10014373 0.21725905
000060 77 67 50 be e2 38 30 be ec 42 81 be f0 ed d8 bd
       -0.20351969 -0.17209199 -0.2524637 -0.10592258
000070 46 db 44 3e 2a 16 84 3e 59 53 72 be ab bf 66 3d
       0.19224271 0.2579816 -0.23664607 0.056335133
000080 6a 2a 67 be 1b 91 89 be 2a 93 2c bc a4 34 18 3e
       -0.22574773 -0.2686852 -0.0105331335 0.14863831
000090 88 0d 2d 3d eb 8e 5e 3e 33 03 6e be 9a e5 2e bb
       0.042249233 0.21734206 -0.23243408 -0.0026687146
0000a0 ad 45 64 3e 41 11 67 be 44 f4 de 3c 01 d8 bc bd
       0.22292204 -0.22565176 0.027216084 -0.09220887
0000b0 74 83 51 3e 92 d6 88 3e 79 45 91 3d 2b cc db bd
       0.20460302 0.26726204 0.07093329 -0.10732301
0000c0 40 80 61 3e 57 62 1e 3d dd 4e 45 3e 14 1e 7d 3c
       0.2202158 0.038668003 0.19268365 0.015449066
0000d0 00 5e 71 3d a1 eb 48 be 0c df b7 3d 76 f4 2f bc
       0.058927536 -0.19621135 0.0897809 -0.010739436
0000e0 6d c5 ff bd 97 76 d8 bd 51 c3 09 be 99 1e 36 be
       -0.12488828 -0.10569494 -0.13453414 -0.1778511
0000f0 da 0f 3d 3e 19 01 84 3e 9c 36 ea bd a9 2f a6 3d
       0.18463078 0.25782087 -0.11436197 0.08114559
000100 54 c7 dd bb 8b f3 f2 3d b2 46 e5 bd 34 63 27 be
       -0.0067681465 0.118628584 -0.11195125 -0.16346437
000110 ba ce 6f 3e 67 68 54 3e fe 51 5a be 06 61 0c 3e
       0.23418704 0.20742951 -0.2132034 0.13708887
000120 6a 96 74 bd 8f 56 5f bd 6e b6 6e be 9a 3c 77 be
       -0.05971376 -0.054525908 -0.23311779 -0.24144211
000130 22 b6 c7 3d be c0 83 be ba ac d6 bd 44 9a 29 3e
       0.09751536 -0.25732988 -0.10482164 0.16562754
000140 cf 96 6e be f1 43 45 bd 5d 9a 32 3c 05 ce 04 3d
       -0.23299716 -0.048160497 0.010901061 0.032423038
000150 95 7a 7c be 99 64 03 3e 72 04 62 3e 2e 10 88 bd
       -0.24656136 0.12831344 0.22072008 -0.06643711
000160 3e c2 ce 3d 66 dd 0b 3e ac b8 62 be d6 18 3a 3e
       0.100956425 0.13658676 -0.22140759 0.18173537
000170 c7 2a 12 3e d1 ae 7d bd 07 b1 be bd 76 13 0f be
       0.14274131 -0.061934296 -0.09311109 -0.13972268
000180 25 88 3f 3e 79 85 b2 3d 18 a2 b5 3b ae ee b6 bc
       0.18704279 0.08716864 0.0055430047 -0.022330608
000190 29 47 8a 3d cf b6 38 be fe 29 3c 3e 91 af 3b be
       0.06751854 -0.18038486 0.18375394 -0.18328692
0001a0 55 68 48 3d 7f fb 03 be eb 88 8e 3e 35 c3 28 be
       0.048927624 -0.12888907 0.27838835 -0.16480716
0001b0 d4 c4 03 3d 5d 16 0c be f8 bf 3c 3e 59 f7 7e bd
       0.03217013 -0.13680406 0.18432605 -0.062247608
0001c0 6e 54 46 3e 05 2f 58 3e 13 c1 4b 3e f8 7b bd 3c
       0.19368145 0.21111687 0.1989787 0.023130402
0001d0 0f f8 d5 bd 2f ad f6 bc 7a 2b 1f 3e 49 20 14 bd
       -0.10447704 -0.030111877 0.15543929 -0.036163602
0001e0 ce 96 91 bd f6 e1 0c be d1 17 8f 3e 7a f8 82 3e
       -0.07108842 -0.13758072 0.27947858 0.25580198
0001f0 07 68 20 3e de 01 31 bd 63 db 04 be fa 3b 44 bd
       0.15664683 -0.04321467 -0.12974314 -0.04790876
000200 96 ea 94 3d f2 1a 6c bd 43 f5 10 3e 73 e7 27 3d
       0.07271306 -0.057642885 0.1415606 0.04099221
000210 08 04 08 3e ff b3 43 3e fc 9e 6a 3e a1 b6 89 bd
       0.13282788 0.19111632 0.2291221 -0.06724287
000220 22 84 66 be e8 ed 6e be 5a 41 34 3d 18 45 fc 3d
       -0.22511342 -0.23332942 0.044007637 0.12317866
000230 85 d1 ca 3d b8 e2 ca bd fe 4d 62 3e 45 56 0c 3e
       0.09903244 -0.099065244 0.22100064 0.13704784
000240 29 f5 33 3e e6 17 ad 3d 7c 2c a0 3e de 74 0f 3e
       0.1757399 0.08451824 0.3128394 0.14009425
000250 b9 f4 3a bd 9a f5 a5 bd 36 98 70 be 29 35 aa be
       -0.045643542 -0.081034854 -0.23495564 -0.33243683
000260 56 0b dd bd 79 2d 8a bd 2e 79 1f be ae 9a fc 3d
       -0.10793178 -0.067469545 -0.1557357 0.1233419
000270 a8 63 21 be 40 f8 57 3e c6 11 23 3e a9 35 32 be
       -0.15760672 0.21090794 0.15924749 -0.17403282
000280 b0 c1 04 3d 7e 0c 16 be 22 16 c1 3c 87 1b 5c be
       0.032411277 -0.14653203 0.023570124 -0.21494876
000290 b9 99 97 3d 1f 5d 7f be f1 75 9d bd 97 1b 44 be
       0.07402367 -0.24937867 -0.07688511 -0.1915115
0002a0 b5 9c 5b 3e 27 b8 77 be 90 07 92 3c ec 0f 3e be
       0.21446498 -0.24191342 0.017825872 -0.18560761
0002b0 25 18 3a be 84 f9 7b 3c 4d 35 5c be dc d3 2d 3b
       -0.18173273 0.015379313 -0.21504708 0.0026523983
0002c0 a0 fe ab bd 10 66 0e be 9d dd e4 3d 06 df 52 bd
       -0.08398175 -0.13906121 0.11175082 -0.051482223
0002d0 53 1d 9f 3d 87 8d 09 3d 16 15 27 be 84 aa fe 3d
       0.07769265 0.033582237 -0.16316637 0.12434867
0002e0 2a 99 44 3e a6 ca fe bd 1b b5 4c be 12 bc 9b bd
       0.19199052 -0.12440996 -0.19990961 -0.07604231
0002f0 f2 74 b9 3c 5c 7e 75 3e 88 1d 98 3d 2b c9 e6 3d
       0.022638772 0.23973984 0.07427508 0.112688385
000300 e5 c5 8a bd 95 90 ed bd aa 3b 98 3d ea 35 af 3c
       -0.06776027 -0.115998425 0.07433255 0.021388013
000310 55 72 7c bd 47 4e f1 3d ae 08 c3 bd d3 25 8d 3e
       -0.061632473 0.11782508 -0.0952314 0.2756792
000320 c6 9a 07 3e 92 3f c4 bd 18 69 ba 3d bc 47 c2 bd
       0.13242635 -0.095824376 0.09102076 -0.094863385
000330 9d ac 6b 3e 1b 4f af 3d a9 7f 83 bd 5c 89 84 3d
       0.23015065 0.0856001 -0.064208336 0.06471512
000340 1a 18 68 3e 22 60 3d 3d 32 02 87 be 6f 02 76 bd
       0.22665444 0.046234258 -0.26368862 -0.060060915
000350 2e 97 f4 3c 99 68 4b 3e d2 78 be 3c a7 6e 82 3e
       0.029857244 0.1986412 0.023250971 0.25475046
000360 4b d7 70 3d a4 28 6f 3e 8a 36 cd bd cf 32 ba bd
       0.05879907 0.23355347 -0.10020168 -0.09091722
000370 89 81 51 be 05 90 df bd 9c 4c 04 3d 54 29 18 be
       -0.2045957 -0.109161414 0.032299623 -0.14859515
000380 82 ed be 3b 3e 04 31 3e c2 ee 09 be 1e 7b 94 3d
       0.005826653 0.17286775 -0.13469985 0.07250045
000390 e2 4b 10 bd 1b ae 36 be 43 3d 95 be dd ac d6 3c
       -0.035228617 -0.17839853 -0.291483 0.026205475
0003a0 6b 3a 5f 3d b6 ed 35 3e 49 ac 84 be bb 5c 7a 3d
       0.05449907 0.17766461 -0.25912693 0.06112359
0003b0 89 4f 8c bd 5e 82 c1 3d d8 99 ff 3b 4a 11 1f 3e
       -0.068511076 0.09448694 0.007800322 0.15533939
0003c0 2f 0b 80 3e 12 da 15 3e 20 8b 4d 3e c9 3a 0c 3d
       0.25008532 0.14633968 0.20072603 0.03423575
0003d0 0c 71 28 3c 1d 5d 9b 3d 51 3d 5b be 2f 1a 36 3e
       0.010280859 0.07586119 -0.21410109 0.17783426
0003e0 1a 88 5b 3e 5d f7 4f be 79 fc ce bd 65 ea 24 be
       0.21438637 -0.20309205 -0.10106749 -0.1610504
0003f0 26 c3 4e 3d d9 cd ec 3d e4 26 b6 bd 33 c9 d2 3d
       0.050479077 0.115627 -0.088941365 0.10292282

arith.constant6 f4 [32]
000000 29 60 99 bd 59 90 a5 3d 54 3d ba bc ab 5b 24 bd
       -0.07489044 0.08084173 -0.022734322 -0.040126484
000010 92 dd d8 bc f0 af 8e 3d 48 16 98 bc 5e 81 a3 3d
       -0.02647284 0.06967151 -0.018565312 0.07983659
000020 47 d4 98 3d 5c e7 9b 3d cc f1 b4 3d b1 ed 9c 3d
       0.07462364 0.07612488 0.088351816 0.076625235
000030 09 43 9e 3d f5 46 95 bc 30 df ae bc bf ec 49 bd
       0.0772763 -0.018222312 -0.021346658 -0.049298044
000040 93 fd 98 bc 29 74 be bc 99 f4 1b bd 99 5a ca 3d
       -0.018675601 -0.023248749 -0.038075063 0.098805614
000050 70 57 a5 3d e6 13 ce bc 7b c5 e8 3d 1d 04 9f bc
       0.08073318 -0.025155973 0.113657914 -0.019411141
000060 75 ea a1 bc 13 dd 9a 3d f3 e1 9b 3d ef 12 ed 3d
       -0.019765118 0.07561698 0.07611456 0.11575877
000070 c9 ed 45 bd 83 fc c9 3d 0b 5b b9 bc 94 70 aa 3d
       -0.048322473 0.09862616 -0.02262642 0.08322254
