app/fluency_model.tflite (tflite, 348400 bytes, 15 tensors)

arith.constant3 f4 [1, 32]
0.16600941 0.06476107 -0.061352123 -0.09666346 0.052426524 0.29844233 -0.10549568 0.004896764
-0.31857163 -0.37370384 -0.20217772 -0.1754231 0.0006531145 -0.09511601 0.32399303 -0.058270056
0.039067715 0.1755162 0.11035759 -0.20811643 -0.28335345 -0.015247792 0.19633412 0.3853144
0.15480626 -0.11380422 -0.3497923 -0.37822115 -0.21156986 0.2405452 -0.12936068 -0.36433473
00000000: 5ffe 293e 74a1 843d 5d4c 7bbd 7ef7 c5bd
00000010: 32bd 563d 6fcd 983e 1e0e d8bd 0975 a03b
00000020: d21b a3be 1c56 bfbe ad07 4fbe 1da2 33be
00000030: c635 2b3a 2fcc c2bd 6ae2 a53e 95ac 6ebd
00000040: 7805 203d 85ba 333e 2903 e23d 791c 55be
00000050: b413 91be e0d1 79bc d00b 493e ee47 c53e
00000060: 8885 1e3e 3012 e9bd fa17 b3be 34a6 c1be
00000070: c5a5 58be 7b51 763e 2077 04be 158a babe

arith.constant4 f4 [32, 64]
0.018241365 0.21482714 -0.20711191 0.17568149 0.070090994 -0.122352764 0.18528764 0.12111803
0.07838527 -0.28617018 0.2233658 -0.012816979 0.030023197 0.18600763 0.11516072 -0.25963286
0.014676658 0.19994074 0.18484469 -0.016570494 -0.17929326 0.13046117 0.09875165 -0.13538851
-0.09107689 0.016156904 -0.1725569 0.089039184 0.072691165 -0.06737152 -0.1852173 0.14707589
-0.13476852 -0.27698895 0.08997254 0.1563488 -0.08721758 -0.08146877 0.15600727 -0.124709606
-0.15483911 -0.061488584 -0.21545812 -0.11380751 0.15099955 -0.06687397 -0.14964682 0.20238993
-0.13814382 -0.07487556 -0.033365943 -0.13835697 0.14542775 0.27999255 0.03452476 -0.16136257
0.19473432 0.021907972 -0.015116028 -0.15035765 0.06398851 0.014627611 -0.22110568 0.063137375
-0.18569979 0.26800898 -0.08167077 -0.023118783 -0.14444456 0.22158384 0.23600039 -0.17942463
-0.2215661 0.1629579 -0.13636757 0.12441126 -0.009721516 -0.17638788 0.09415491 0.10976176
-0.15548845 -0.25894436 -0.2730286 -0.021277606 0.08273298 0.09439455 0.25259203 -0.08364452
0.046436016 -0.10974737 0.17232792 -0.10029152 0.06959364 0.20265003 -0.13774529 0.1356154
-0.0009951147 0.111544356 0.19634871 0.018156514 -0.16676071 0.08087112 -0.20532547 -0.14845416
0.16387777 0.15811943 -0.037430912 -0.007207444 -0.15714411 -0.07012559 0.07316944 -0.18182327
-0.13589263 0.0669935 0.16555396 0.33907777 -0.18039401 -0.15169512 -0.11528788 0.2596982
0.09904098 0.17492959 -0.17232841 -0.2248094 -0.029364523 0.12694246 0.17385392 0.05692551
0.23590127 -0.019030107 0.1274765 0.05704983 -0.13640384 -0.09206001 0.023065384 -0.02038323
0.08164591 0.19657609 0.11870275 -0.018601498 -0.05128072 0.04987812 0.15072268 0.068335906
-0.17783882 0.06303998 -0.111687645 0.042777743 -0.032603752 0.19053496 -0.19718447 -0.08961373
-0.11358737 -0.15434287 -0.17341842 -0.21120678 0.007793724 -0.14975089 -0.12554465 -0.16794574
-0.08808387 -0.04635923 -0.21632656 0.18286096 0.16646676 -0.021087995 0.19621165 -0.1139127
0.21644042 -0.13101089 0.07499056 0.011619192 -0.07610414 0.15685153 -0.06972541 -0.18103297
0.24135162 -0.03469336 -0.061255585 0.15334359 -0.10363881 0.22052301 -0.20845677 0.14591148
-0.20214967 -0.041894183 0.0206357 0.15160532 0.022237986 -0.046220955 0.24470259 -0.052060496
0.16752414 0.10521633 -0.08341678 0.15440054 0.17269151 0.14461304 -0.17686227 -0.19517653
0.23749083 -0.24627373 -0.044600785 0.21495087 -0.2395684 0.10994853 0.10109378 0.19160518
-0.19193223 -0.063509114 -0.22191393 -0.21023576 0.21565165 0.027033474 0.25984174 0.11219449
0.18956067 -0.046286933 -0.09022919 0.117567256 0.052107774 0.13633639 0.054156173 -0.21665235
0.15179668 0.16159281 0.1669677 -0.25003764 -0.01303139 0.086787395 0.122871354 0.17302346
-0.04715294 -0.011843539 -0.002349038 0.16734399 -0.08195165 -0.13686092 -0.00502097 -0.11648321
0.036297236 0.004865189 0.22729881 -0.21766746 0.16984634 0.13124608 0.053735714 0.14926238
0.027266044 0.11600927 -0.059345193 0.25965363 -0.17274714 -0.1432754 0.22591582 -0.09048093
00000000: ea6e 953c a5fb 5b3e 2515 54be d9e5 333e
00000010: de8b 8f3d 1694 fabd 0bbc 3d3e bb0c f83d
00000020: 7588 a03d e684 92be 01ba 643e 4efe 51bc
00000030: 35f3 f53c c978 3e3e 62d9 eb3d 99ee 84be
00000040: 5e76 703c 44bd 4c3e ed47 3d3e d8be 87bc
00000050: a798 37be 9d97 053e 4e3e ca3d 49a3 0abe
00000060: 8586 babd 7c5b 843c c2b2 30be 2d5a b63d
00000070: 1bdf 943d 14fa 89bd 9ba9 3dbe 109b 163e
00000080: c200 0abe 7fd1 8dbe 8643 b83d e619 203e
00000090: 219f b2bd 19d9 a6bd 5fc0 1f3e c067 ffbd
000000a0: 258e 1ebe 74db 7bbd 0ea1 5cbe e913 e9bd
000000b0: a09f 1a3e 38f5 88bd 043d 19be 4e3f 4f3e
000000c0: 9375 0dbe 5c58 99bd baaa 08bd 73ad 0dbe
000000d0: 03eb 143e 2f5b 8f3e d669 0d3d 3b3c 25be
000000e0: 6f68 473e 5978 b33c 37a9 77bc 5bf7 19be
000000f0: 680c 833d a6a8 6f3c 8769 62be 2b4e 813d
00000100: 1628 3ebe 7938 893e 0143 a7bd 9a63 bdbc
00000110: 46e9 13be e0e6 623e 16aa 713e 17bb 37be
00000120: 39e2 62be 70de 263e f1a3 0bbe 55cb fe3d
00000130: fe46 1fbc 069f 34be 4ad4 c03d c6ca e03d
00000140: 5d38 1fbe 5b94 84be 68ca 8bbe 604e aebc
00000150: e96f a93d ee51 c13d be53 813e d14d abbd
00000160: b133 3e3d 3bc3 e0bd bb76 303e a465 cdbd
00000170: 1c87 8e3d 7d83 4f3e 1a0d 0dbe c3de 0a3e
00000180: 826e 82ba 5e71 e43d a30f 493e f8bc 943c
00000190: 52c3 2abe c29f a53d d740 52be 5e04 18be
000001a0: 93cf 273e 0fea 213e 2851 19bd 6c2c ecbb
000001b0: 63ea 20be 019e 8fbd dcd9 953d e12f 3abe
000001c0: 7027 0bbe e333 893d fa86 293e 9a9b ad3e
000001d0: 35b9 38be f755 1bbe 0d1c ecbd 2af7 843e
000001e0: ffd5 ca3d be20 333e dc76 30be 6f34 66be
000001f0: de8d f0bc 34fd 013e c306 323e b92a 693d
00000200: 1a90 713e 07e5 9bbc 3389 023e 15ad 693d
00000210: 73ad 0bbe f589 bcbd 9ef3 bc3c bbfa a6bc
00000220: f935 a73d 3e4b 493e 6d1a f33d 2b62 98bc
00000230: bb0b 52bd 004d 4c3d 0c57 1a3e b2f3 8b3d
00000240: 611b 36be 1b1b 813d 7ebc e4bd b737 2f3d
00000250: 838b 05bd 991b 433e baea 49be 6787 b7bd
00000260: 7fa0 e8bd 0f0c 1ebe 9994 31be 9746 58be
00000270: 7f62 ff3b 4c58 19be c78e 00be f8f9 2bbe
00000280: 5165 b4bd 2de3 3dbd b684 5dbe e73f 3b3e
00000290: 4376 2a3e bbc0 acbc b5eb 483e 104b e9bd
000002a0: 8fa2 5d3e b827 06be a794 993d 6c5e 3e3c
000002b0: 7ddc 9bbd b09d 203e 32cc 8ebd b560 39be
000002c0: e124 773e a01a 0ebd 23e7 7abd 1a06 1d3e
000002d0: 9640 d4bd c9d0 613e b175 55be d269 153e
000002e0: 5300 4fbe 3c99 2bbd 330c a93c 6d3e 1b3e
000002f0: 702c b63c 2f52 3dbd 5193 7a3e 633d 55bd
00000300: 738b 2b3e a97b d73d 6bd6 aabd 2d1b 1e3e
00000310: 0bd6 303e 7115 143e 621b 35be 5bdc 47be
00000320: cc30 733e 2e2f 7cbe 50af 36bd 151c 5c3e
00000330: 6b51 75be b22c e13d 410a cf3d 2634 443e
00000340: e289 44be 1111 82bd 683d 63be 0b48 57be
00000350: c9d3 5c3e 4e75 dd3c fa09 853e 3ac6 e53d
00000360: 311c 423e 5e97 3dbd 15ca b8bd 1ac7 f03d
00000370: f66e 553d c49b 0b3e ddd2 5d3d 1dda 5dbe
00000380: 9770 1b3e 9678 253e 95f9 2a3e ef04 80be
00000390: 9c81 55bc 97bd b13d faa3 fb3d 102d 313e
000003a0: 7123 41bd 670b 42bc 51f2 19bb 395c 2b3e
000003b0: 44d6 a7bd 4525 0cbe f386 a4bb c08e eebd
000003c0: 69ac 143d 2a6c 9f3b 05c1 683e 38e4 5ebe
000003d0: 33ec 2d3e 5f65 063e fb19 5c3d 3dd8 183e
000003e0: 0a5d df3c 4596 ed3d f213 73bd 52f1 843e
000003f0: a0e4 30be c9b6 12be 7a56 673e 114e b9bd

arith.constant5 f4 [32]
0.033258986 0.013267354 -0.027461026 -0.014861095 0.03219857 0.042370252 -0.021049837 -0.014217565
-0.01710668 -0.030293852 -0.034395657 -0.027291823 -0.017842116 -0.037533324 0.0419806 -0.0149899535
0.016447105 0.04036454 0.035675198 -0.02113881 -0.012743375 -0.027596245 0.022340734 0.043729644
0.040451743 -0.012982801 -0.03025697 -0.01464126 -0.014628966 0.04201335 -0.02977893 -0.017188288
00000000: 933a 083d 515f 593c f2f5 e0bc f37b 73bc
00000010: a6e2 033d 6e8c 2d3d b570 acbc caf0 68bc
00000020: 4f23 8cbc d02a f8bc 76e2 0cbd 1a93 dfbc
00000030: a129 92bc 8bbc 19bd daf3 2b3d 6c98 75bc
00000040: 14bc 863c 4a55 253d 2820 123d 4c2b adbc
00000050: 97c9 50bc 8511 e2bc ea03 b73c db1d 333d
00000060: bab0 253d d0b5 54bc 77dd f7bc e5e1 6fbc
00000070: 55ae 6fbc 3116 2c3d f1f2 f3bc 74ce 8cbc

arith.constant20 f4 [256, 1]
-0.10186633 0.07245785 -0.00048262265 -0.08037992 -0.025065644 -0.1187076 -0.18605855 -0.058062095
0.15237711 0.14637944 -0.0031648022 -0.0222785 -0.03224957 0.0923562 0.04261945 0.06769614
-0.05209732 0.059536777 -0.17802888 0.14958388 -0.12688139 0.093514286 0.0595706 -0.058543134
0.06018138 0.077778526 -0.21660137 -0.09107992 -0.12010802 0.1257254 -0.089540094 -0.13075146
0.107658096 0.09821919 0.06113451 -0.08687597 0.012429026 0.113337204 0.1347467 -0.11867803
-0.16574405 -0.027455075 0.011189683 -0.05051756 -0.07072011 0.14015552 -0.055353407 0.014776928
0.15831025 -0.14637814 -0.15038256 0.06474247 -0.08016331 -0.13090661 0.14072168 0.042447276
-0.002703944 -0.04534104 0.029768584 -0.09240393 -0.15123153 -0.10865237 -0.11172996 0.13700722
-0.032765556 -0.00827485 0.14784245 0.10005163 0.06121895 0.032703698 0.0011360272 0.07734761
0.09220491 -0.00950711 0.06296567 0.02409898 -0.058869738 0.03932271 0.11217914 0.0925422
-0.093297504 0.12406863 -0.052266918 -0.086817406 0.015825232 -0.12901068 0.035593692 -0.07806515
-0.09885913 0.07064987 -0.16615202 0.09659357 0.16426979 0.120851114 0.09322465 -0.008479105
0.13189909 -0.13744882 0.05725836 0.018015044 0.11267542 -0.022276271 0.13705482 -0.18769272
-0.10706674 0.010693633 -0.027131438 0.067538425 0.0787026 0.029172586 0.09914225 -0.013624522
0.1831153 0.07335742 0.15080906 0.0117689455 0.04757204 -0.16038394 0.13017718 0.18127301
0.17673811 0.1893122 -0.15686378 0.049892377 0.1343011 -0.14544694 -0.0033870412 0.04880909
-0.16289994 -0.08910395 0.039897744 -0.014108006 -0.090160914 -0.045146663 0.12352439 0.16740215
-0.0530613 -0.1318201 0.067613676 -0.07046052 0.11625051 -0.12044121 -0.071575314 -0.025925258
0.07235184 -0.066167735 0.04893123 -0.05927704 -0.133908 -0.10655406 0.069610395 0.077288166
0.1467548 -0.00068921805 -0.15219916 0.005145781 -0.13281035 0.097789034 0.14967255 -0.06198142
-0.12631226 -0.033600356 0.11580973 -0.14219294 0.019188626 0.15480945 0.13883834 0.12929448
-0.06149852 0.08155616 0.0016271035 0.054056104 -0.10071913 -0.15940453 0.0866181 -0.044970352
-0.17791533 -0.009482694 0.09876234 -0.108154014 -0.092530854 0.16858362 -0.07558103 0.122008935
0.023991732 0.03485808 0.0011996537 -0.08361543 0.042581566 -0.06621525 0.07720023 -0.04753949
-0.1819261 -0.18977003 -0.14683674 -0.14195454 0.09104139 -0.016033238 -0.21866931 0.0739714
0.053690225 -0.12637213 0.10242504 0.046347693 -0.06687543 0.052196283 -0.13070388 -0.11411704
-0.051111866 -0.12895146 0.10969775 -0.029904211 0.09173659 0.15686072 0.14690492 0.023518518
-0.068559624 0.11421536 -0.19125064 0.15081166 0.07961616 0.04126308 0.21606195 0.14742965
0.13152318 0.0843424 -0.11141452 0.12296481 -0.06639698 0.111100994 -0.13791671 -0.015253543
0.10121434 0.10159497 -0.094925635 -0.078754105 -0.018985108 -0.1273802 -0.07828591 -0.01503967
-0.04924805 -0.030034091 0.006065213 0.04903587 0.0071737813 -0.15442275 0.03654896 0.008652232
0.08872949 -0.005442429 -0.06618029 -0.056018837 0.05824557 -0.09068376 0.15606292 -0.17869413
00000000: 4b9f d0bd c864 943d 8408 fdb9 3a9e a4bd
00000010: 7756 cdbc f81c f3bd 2286 3ebe 85d2 6dbd
00000020: bf08 1c3e 7ee4 153e 9268 4fbb 6781 b6bc
00000030: 2018 04bd 3f25 bd3d bb91 2e3d 46a4 8a3d
00000040: 0064 55bd d6dc 733d 344d 36be 842c 193e
00000050: 32ed 01be 6b84 bf3d 4d00 743d edca 6fbd
00000060: c080 763d 594a 9f3d c0cc 5dbe 1c88 babd
00000070: 32fb f5bd 29be 003e cc60 b7bd b6e3 05be
00000080: d97b dc3d 2527 c93d 2e68 7a3d 07ec b1bd
00000090: 1da3 4b3c 561d e83d 0afb 093e 780d f3bd
000000a0: cfb8 29be 77e9 e0bc ef54 373c 80eb 4ebd
000000b0: b4d5 90bd ee84 0f3e 41ba 62bd ee1a 723c
000000c0: 151c 223e 27e4 15be e3fd 19be b397 843d
000000d0: a92c a4bd 620c 06be 5819 103e 32dd 2d3d
000000e0: a734 31bb 87b7 39bd 3fdd f33c 463e bdbd
000000f0: 70dc 1abe 2285 debd add2 e4bd 9f4b 0c3e
00000100: 2d35 06bd 3d93 07bc 0364 173e dee7 cc3d
00000110: b9c0 7a3d 50f4 053d bfe6 943a 6c68 9e3d
00000120: eed5 bc3d b6c3 1bbc 25f4 803d 396b c53c
00000130: 6521 71bd da10 213d 2dbe e53d c486 bd3d
00000140: c312 bfbd b217 fe3d d615 56bd 53cd b1bd
00000150: eba3 813c 601b 04be b1ca 113d 9fe0 9fbd
00000160: a876 cabd e1b0 903d c123 2abe dad2 c53d
00000170: 5736 283e ca80 f73d 91ec be3d f2eb 0abc
00000180: 8e10 073e 62bf 0cbe be87 6a3d 4994 933c
00000190: 5fc2 e63d ba7c b6bc 1958 0c3e 8532 40be
000001a0: cf45 dbbd 5934 2f3c c042 debc 9651 8a3d
000001b0: d42e a13d 59fb ee3c 180b cb3d 6339 5fbc
000001c0: 9482 3b3e 6a3c 963d b16d 1a3e 89d2 403c
000001d0: e6da 423d b03b 24be 2b4d 053e a29f 393e
000001e0: d6fa 343e 0fdb 413e e6a0 20be f35b 4c3d
000001f0: 3a86 093e 0bf0 14be 1ff9 5dbb 0aec 473d
00000200: 3ecf 26be 227c b6bd d16b 233d 4425 67bc
00000210: 49a6 b8bd b5eb 38bd 5bfa fc3d 786b 2b3e
00000220: ce56 59bd d9fb 06be 0a79 8a3d 9b4d 90bd
00000230: bf14 ee3d e2a9 f6bd 1496 92bd 3561 d4bc
00000240: 342d 943d f382 87bd 1d6c 483d 7bcc 72bd
00000250: 2e1f 09be 0439 dabd e58f 8e3d 4249 9e3d
00000260: e446 163e a4ac 34ba 19da 1bbe f19d a83b
00000270: 70ff 07be 9e45 c83d c343 193e 3be0 7dbd
00000280: 0058 01be 87a0 09bd a72d ed3d 079b 11be
00000290: 7731 9d3c 5e86 1e3e a32b 0e3e c665 043e
000002a0: dfe5 7bbd ea06 a73d 8944 d53a ef69 5d3d
000002b0: d545 cebd f13a 23be d564 b13d d532 38bd
000002c0: 702f 36be 4d5d 1bbc e943 ca3d da7f ddbd
000002d0: d180 bdbd 2fa1 2c3e 3aca 9abd d2df f93d
000002e0: 4f8a c43c 59c7 0e3d b33d 9d3a 913e abbd
000002f0: 026a 2e3d dc9b 87bd 271b 9e3d c5b8 42bd
00000300: d64a 3abe 1353 42be 5f5c 16be 885c 11be
00000310: e973 ba3d 2358 83bc d9ea 5fbe 517e 973d
00000320: 48ea 5b3d b267 01be 38c4 d13d 14d7 3d3d
00000330: fcf5 88bd c5cb 553d 3dd7 05be 32b6 e9bd
00000340: ad5a 51bd da0b 04be 37a9 e03d adf9 f4bc
00000350: 65e0 bb3d 19a0 203e 3e6e 163e e8a9 c03c
00000360: fd68 8cbd bee9 e93d 35d7 43be 5f6e 1a3e
00000370: cc0d a33d 7a03 293d 583f 5d3e ccf7 163e
00000380: 03ae 063e b5bb ac3d 4c2d e4bd f9d4 fb3d
00000390: 24fb 87bd eb88 e33d 0a3a 0dbe ffe9 79bc
000003a0: 7749 cf3d 0611 d03d 5f68 c2bd d549 a1bd
000003b0: a886 9bbc f56f 02be 5d54 a0bd f368 76bc
000003c0: 53b8 49bd 0e0a f6bc b2be c63b d6d9 483d
000003d0: 0a12 eb3b ff20 1ebe 5db4 153d 17c2 0d3c
000003e0: cfb7 b53d 6756 b2bb 8889 87bd 0274 65bd
000003f0: e892 6e3d 68b8 b9bd f5ce 1f3e 98fb 36be

arith.constant21 f4 [256, 64]
-0.009918909 0.03235094 -0.040112108 -0.008065182 0.174827 0.051327422 0.0012821993 0.060292207
0.006843469 -0.006846121 -0.023044402 0.009516607 -0.062011868 0.06148865 -0.08655207 0.08285821
0.006748713 -0.0062706624 0.12854855 0.12547612 0.04284669 0.10490116 -0.09263346 -0.04411772
0.006196083 0.11602599 -0.08396995 -0.04887032 0.07026948 -0.02069451 -0.06849344 0.0067304615
-0.030785212 -0.021335287 -0.04036682 -0.003254641 0.0075298473 -0.056556974 -0.07383617 -0.02485262
0.076350085 -0.030471971 0.00042726283 -0.026037082 0.10319114 0.048834134 -0.07189843 0.070483625
0.09066921 0.021323064 -0.0017586882 0.058277167 0.0111454595 0.030351976 -0.016940951 -0.02595643
0.005682027 -0.027766088 0.081810914 0.011954 -0.020698205 -0.035469357 -0.075249046 -0.0919023
-0.09058762 -0.022807552 -0.033961836 -0.026865436 -0.022370404 0.09839034 -0.06454431 0.028970968
-0.046990506 -0.015676912 0.18541095 -0.039166655 -0.03609447 0.08092717 -0.08592997 -0.08508483
-0.051505398 -0.13468099 0.08035499 0.19900927 -0.114007674 -0.10029979 0.05408698 0.011169784
0.02412746 0.04875885 -0.043504182 0.08307565 0.027185816 -0.100581504 0.046137292 -0.031106316
0.051843364 0.014021495 0.0023075636 -0.014669085 -0.0077876477 -0.10990689 0.008880428 0.08083403
-0.038357716 -0.05205191 0.04357682 0.13500519 -0.01785394 -0.00592106 0.06968955 -0.031910244
0.019600064 0.08813366 0.03287725 0.058976855 -0.039266843 0.039082877 -0.024354959 -0.14953347
0.048053317 0.11449536 -0.17570992 0.028970383 0.026574463 -0.037441306 -0.06708817 -0.07618538
0.106933385 -0.0033410958 0.030526694 0.03373491 0.044210944 0.03265842 0.01136659 0.026925817
0.19356658 -0.02077578 0.0553607 0.018481683 0.06953686 0.050990723 0.0075533227 0.052885998
-0.085650146 -0.09788778 0.11580361 -0.05896602 -0.16542117 0.09803519 -0.12276213 0.10981826
0.006211398 0.14339212 0.011313882 -0.0019182987 0.02652674 -0.0021480888 -0.0725509 -0.075722344
-0.077255264 0.0025704287 -0.0962266 0.115492314 0.063720874 0.01679297 -0.011910438 0.03670926
-0.011184922 -0.07155355 -0.13949181 0.08316329 -0.008616738 -0.14209878 -0.08183621 0.004493905
-0.028762063 0.038073998 -0.035120983 0.10359158 -0.086056 0.07320827 -0.06778587 -0.07023655
0.035298843 0.034783706 -0.07168283 0.002222006 0.12421482 -0.083489165 0.004030806 -0.03253293
0.17097098 0.0325844 -0.07579061 0.05721122 -0.069635995 0.06639253 -0.079714596 0.010059953
0.05638342 -0.06792024 -0.09341084 0.013190347 0.05904481 -0.061214786 0.022480337 0.0042804093
-0.06718223 -0.13886112 0.02526301 0.2192571 0.0808395 0.02957449 0.035419203 0.06991024
0.021167347 0.0312065 -0.007834003 -0.020339174 0.04116138 0.037440117 0.064239405 0.024654474
-0.03198976 0.06418835 0.067489505 0.14167807 -0.110288784 0.025751067 0.057962615 0.18437082
-0.03060011 0.12368145 -0.032016452 -0.09314737 0.014737741 0.07412937 0.057629384 -0.039787464
0.019042334 0.11474833 0.044234008 -0.006411703 -0.013570819 0.02494443 0.024938105 -0.10161984
0.14137918 -0.21301116 -0.07757201 -0.08050775 0.073819995 0.035046436 -0.06764384 -0.024838326
00000000: eb82 22bc 6b82 043d 984c 24bd d323 04bc
00000010: d905 333e b43c 523d 780f a83a f6f4 763d
00000020: 2e3f e03b 6d55 e0bb 9dc7 bcbc 8beb 1b3c
00000030: 2800 7ebd 86db 7b3d 3642 b1bd 91b1 a93d
00000040: 4f24 dd3b 217a cdbb 3ba2 033e d07c 003e
00000050: 0380 2f3d 6bd6 d63d 9db6 bdbd c8b4 34bd
00000060: 8308 cb3b 099f ed3d 70f8 abbd 3f2c 48bd
00000070: 72e9 8f3d 8887 a9bc 4a46 8cbd 348b dc3b
00000080: 4531 fcbc 57c7 aebc ae57 25bd d14b 55bb
00000090: f0bc f63b 49a8 67bd 6b37 97bd b997 cbbc
000000a0: 6f5d 9c3d 5ba0 f9bc 3f02 e039 b84b d5bc
000000b0: e055 d33d 4d06 483d 7c3f 93bd b859 903d
000000c0: c7b0 b93d b5ad ae3c c983 e6ba 0ab4 6e3d
000000d0: 729b 363c b5a4 f83c c0c7 8abc 94a2 d4bc
000000e0: 4c30 ba3b b575 e3bc 7b8c a73d b6da 433c
000000f0: 488f a9bc 5148 11bd 2c1c 9abd 4637 bcbd
00000100: 0186 b9bd e7d6 babc 911b 0bbd e714 dcbc
00000110: 2342 b7bc e080 c93d cf2f 84bd 8654 ed3c
00000120: 1e79 40bd de6c 80bc 5edc 3d3e 376d 20bd
00000130: ccd7 13bd 25bd a53d 0dfc afbd f540 aebd
00000140: 53f7 52bd d0e9 09be 2891 a43d 16c9 4b3e
00000150: db7c e9bd fa69 cdbd 4f8a 5d3d 7801 373c
00000160: f3a6 c53c 5cb7 473d 7131 32bd 9123 aa3d
00000170: cab4 de3c adfd cdbd 75fa 3c3d acd2 febc
00000180: b559 543d 6aba 653c 7e3a 173b 9a56 70bc
00000190: 862f ffbb dd16 e1bd 377f 113c 508c a53d
000001a0: fb1c 1dbd 6234 55bd 9c7d 323d cd3e 0a3e
000001b0: 6d42 92bc 7405 c2bb 65b9 8e3d 51b4 02bd
000001c0: 5090 a03c 6c7f b43d 4caa 063d b791 713d
000001d0: 45d6 20bd 5e15 203d 0d84 c7bc 4d1f 19be
000001e0: 8ed3 443d 8b7c ea3d 4ded 33be 4c53 ed3c
000001f0: b0b2 d93c 0e5c 19bd 8665 89bd 1507 9cbd
00000200: e4ff da3d 49f6 5abb 1e13 fa3c 9e2d 0a3d
00000210: 8916 353d d6c4 053d ef3a 3a3c 8893 dc3c
00000220: 5136 463e f831 aabc e7c1 623d e666 973c
00000230: 5769 8e3d a6db 503d dd81 f73b fd9e 583d
00000240: 5869 afbd 6379 c8bd 712a ed3d 5a86 71bd
00000250: 2b64 29be acc6 c83d b66a fbbd 65e8 e03d
00000260: fc88 cb3b 62d5 123e dc5d 393c 6c6f fbba
00000270: 9b4e d93c f3c6 0cbb 9195 94bd 5114 9bbd
00000280: 0238 9ebd a374 283b 7412 c5bd 3c87 ec3d
00000290: 1780 823d 6991 893c ff23 43bc 735c 163d
000002a0: f740 37bc ab8a 92bd f1d6 0ebe 8451 aa3d
000002b0: 382d 0dbc 5882 11be be99 a7bd 9c41 933b
000002c0: 6b9e ebbc 7bf3 1b3d 05db 0fbd d327 d43d
000002d0: 213e b0bd 38ee 953d 51d3 8abd 2ed8 8fbd
000002e0: 8595 103d 5c79 0e3d 73ce 92bd 139f 113b
000002f0: 5764 fe3d 5efc aabd da14 843b 4041 05bd
00000300: 0413 2f3e 3877 053d 1b38 9bbd 5056 6a3d
00000310: 519d 8ebd cff8 873d 6841 a3bd 80d2 243c
00000320: 4df2 663d c419 8bbd 2f4e bfbd 531c 583c
00000330: f8d8 713d 5bbc 7abd af28 b83c ad42 8c3b
00000340: d696 89bd 9c31 0ebe 5ff4 ce3c ef84 603e
00000350: 2e8f a53d 3346 f23c ba13 113d 1a2d 8f3d
00000360: 2567 ad3c c6a4 ff3c 315a 00bc 579e a6bc
00000370: d698 283d cf5a 193d f38f 833d 2ef8 c93c
00000380: b207 03bd 2f75 833d f037 8a3d 0e14 113e
00000390: 16df e1bd e7f3 d23c 356a 6d3d b4cb 3c3e
000003a0: 15ad fabc b34c fd3d af23 03bd 0cc4 bebd
000003b0: 9176 713c 24d1 973d ca0c 6c3d 2ef8 22bd
000003c0: abfe 9b3c 2c01 eb3d b82e 353d 4319 d2bb
000003d0: 2458 5ebc 4358 cc3c ff4a cc3c 101e d0bd
000003e0: b4c5 103e 991f 5abe 13de 9ebd 3fe1 a4bd
000003f0: f02e 973d da8c 0f3d db88 8abd bf79 cbbc

sequential_1/bidirectional_1/backward_lstm_1/while/lstm_cell_1/add_1/ReadVariableOp f4 [256]
-0.0025028982 -0.04189223 -0.03991848 -0.010572243 -0.04710147 0.0048429044 -0.038515862 0.0041737948
0.024818849 0.009510701 -0.006974387 -0.004956514 -0.0047296523 -0.011542181 0.0062124114 -0.025027897
0.010098048 0.0070444345 -0.0048567783 -0.009389161 -0.024364457 0.0011095433 -0.019332547 -0.009960693
-0.008682377 0.005863278 -0.037216526 -0.004513366 0.0057489406 0.03067565 -0.012837241 -0.022677846
0.0066320924 -0.0102260765 0.0032802112 0.025067216 -0.033639003 -0.031382337 -0.0045316615 -0.010213935
-0.042197578 -0.046292912 -0.052535217 -0.0060457974 -0.039618187 -0.007090431 0.010579899 -0.012271134
-0.00024099862 -0.04072375 -0.019015472 0.005204243 -0.007647898 0.005579322 -0.026841715 -0.0006126989
-0.025268277 0.0012056241 -0.046931308 -0.0040108147 -0.027799794 0.013293771 0.010129123 0.0025578933
0.9790942 0.93998206 0.9576967 0.9844535 0.943018 1.008215 0.95861596 0.9720702
1.0376981 1.004812 1.0109953 0.99750763 0.99313015 0.9918715 1.0053034 0.99113315
1.0097516 1.0069882 1.00205 0.9858217 0.9919723 1.0013629 0.9749673 0.99580085
0.9842422 1.0104805 0.9816144 0.9998288 0.99833965 1.0368773 0.98107404 0.9717575
0.9979432 0.98815376 1.0135722 1.0295719 0.97336894 0.96596444 1.0033934 0.98880726
0.9658247 0.944792 0.93610936 0.9944331 0.981899 0.991771 1.0075331 0.9985395
1.001168 0.962215 0.9669866 1.0099889 0.98308223 1.0110605 0.98958534 1.0098476
0.9824949 1.0042042 0.9694045 1.0083927 0.9837989 0.9981573 1.0155346 0.9932371
0.026944455 0.018192986 -0.016268961 -0.016483597 -0.0056367153 -0.036118664 -0.011970667 0.03614876
-0.031105977 -0.032233555 -0.030126842 -0.02644011 0.025756372 -0.027401183 0.021330727 -0.02199681
0.031822704 0.036418498 -0.017231723 -0.020457642 0.028726304 -0.021205261 0.015137629 -0.022420755
-0.017163135 -0.030091064 0.0037566754 -0.02430657 -0.007655305 0.03187512 0.019612014 -0.0337088
-0.027003946 0.0040994016 -0.015097059 -0.03394323 0.023572968 0.012424414 0.029914098 -0.015752671
0.016346725 0.0027207374 0.010180406 -0.028538689 -0.009072016 0.010474349 0.031120218 0.027997538
-0.018393181 -0.019461844 0.022109393 -0.034255963 -0.02556815 -0.020115303 0.020527178 0.025354978
-0.0226973 0.026176902 -0.022476783 -0.03282804 0.0059117004 0.028464299 0.039321896 0.022770269
-0.009536195 -0.06941398 -0.043760102 -0.01162308 -0.04644999 0.00011494888 -0.030967155 -0.008880678
0.021631658 0.009526919 -0.007211589 -0.007980309 -0.007530357 -0.01847335 0.0021141807 -0.02355113
0.008464829 0.0031371089 0.001855887 -0.005515294 -0.0073667285 -0.0015327827 -0.020618971 -0.004223446
-0.013812111 0.0035970951 -0.021764575 -0.002139358 0.0052916775 0.032199267 -0.03312788 -0.030648528
0.0034317998 -0.011062372 0.0015372357 0.015494757 -0.03211283 -0.037825696 -0.0074273385 -0.005004105
-0.04082444 -0.047297824 -0.054217927 -0.007730445 -0.0385104 -0.0073660314 0.0048950673 -0.013430144
0.005931526 -0.039278157 -0.022655968 0.0012226122 -0.010918062 0.006802534 -0.028669942 -0.0027981934
-0.025231855 -0.0005603037 -0.044220604 -0.008360036 -0.024176734 0.014582873 0.004525397 -0.005211141
00000000: aa07 24bb 3097 2bbd 8f81 23bd 3337 2dbc
00000010: 79ed 40bd 3ab1 9e3b cfc2 1dbd 54c4 883b
00000020: e650 cb3c c5d2 1b3c 6689 e4bb 416a a2bb
00000030: 33fb 9abb 6a1b 3dbc 7c91 cb3b 4e07 cdbc
00000040: 4872 253c 00d5 e63b 9c25 9fbb ffd4 19bc
00000050: f897 c7bc 186e 913a 4a5f 9ebc 2d32 23bc
00000060: 8740 0ebc be20 c03b 5b70 18bd dce4 93bb
00000070: 9c61 bc3b 804b fb3c 4b53 52bc e4c6 b9bc
00000080: 0652 d93b 468b 27bc d0f8 563b c359 cd3c
00000090: 0dc9 09bd c48a 00bd 557e 94bb 5958 27bc
000000a0: 5ed7 2cbd a39d 3dbd 2b2f 57bd d31b c6bb
000000b0: ae46 22bd d956 e8bb 5057 2d3c de0c 49bc
000000c0: 93b4 7cb9 f2cd 26bd 56c6 9bbc 5b88 aa3b
000000d0: 389b fabb bfd2 b63b 28e3 dbbc 879d 20ba
000000e0: 6bff cebc 0806 9e3a 0b3b 40bd 276d 83bb
000000f0: 65bc e3bc 1ece 593c 9ff4 253c 54a2 273b
00000100: eba5 7a3f aaa2 703f 9c2b 753f 2505 7c3f
00000110: a169 713f 300d 813f db67 753f 98d9 783f
00000120: 4bd3 843f ae9d 803f 4b68 813f a95c 7f3f
00000130: c73d 7e3f 4aeb 7d3f c8ad 803f e7ba 7d3f
00000140: 8a3f 813f fde4 803f 2d43 803f d05e 7c3f
00000150: e6f1 7d3f a92c 803f 7597 793f ceec 7e3f
00000160: 4cf7 7b3f 6d57 813f 154b 7b3f c8f4 7f3f
00000170: 3093 7f3f 65b8 843f ab27 7b3f 19c5 783f
00000180: 3579 7f3f a5f7 7c3f bcbc 813f 03c9 833f
00000190: b52e 793f 7249 773f 326f 803f 7922 7d3f
000001a0: 4a40 773f e3dd 713f dda4 6f3f 2b93 7e3f
000001b0: bc5d 7b3f b4e4 7d3f d8f6 803f 49a0 7f3f
000001c0: 4626 803f b953 763f 6f8c 773f 5147 813f
000001d0: 47ab 7b3f 6e6a 813f 7755 7d3f b042 813f
000001e0: c984 7b3f c389 803f e52a 783f 0313 813f
000001f0: 3fda 7b3f 3d87 7f3f 0afd 813f c944 7e3f
00000200: 9eba dc3c 7509 953c 7c46 85bc 9c08 87bc
00000210: 32b4 b8bb 2af1 13bd 9e20 44bc b910 143d
00000220: f6d1 febc 5507 04bd 91cc f6bc ee98 d8bc
00000230: 07ff d23c 7278 e0bc c7bd ae3c a732 b4bc
00000240: 8658 023d 902b 153d 8b29 8dbc c996 a7bc
00000250: 6d53 eb3c a8b6 adbc d103 783c bbab b7bc
00000260: b499 8cbc 8981 f6bc 8e32 763b 921e c7bc
00000270: 5ad9 fabb 7c8f 023d 60a9 a03c 3d12 0abd
00000280: 6137 ddbc 4654 863b a859 77bc 0e08 0bbd
00000290: 191c c13c c58f 4b3c 690e f53c bf0b 81bc
000002a0: 91e9 853c 664e 323b b8cb 263c f8c9 e9bc
000002b0: cba2 14bc 9b9c 2b3c d4ef fe3c 185b e53c
000002c0: 4cad 96bc 726e 9fbc c21e b53c fb4f 0cbd
000002d0: 4c74 d1bc d9c8 a4bc 9d28 a83c 3eb5 cf3c
000002e0: b0ef b9bc f170 d63c 3b21 b8bc b276 06bd
000002f0: f0b6 c13b f62d e93c ff0f 213d b788 ba3c
00000300: b33d 1cbc eb28 8ebd cb3d 33bd bb6e 3ebc
00000310: 5842 3ebd b610 f138 d5ae fdbc 4380 11bc
00000320: e034 b13c cb16 1c3c 314f ecbb d8bf 02bc
00000330: 37c1 f6bb 6c55 97bc 118e 0a3b 4dee c0bc
00000340: 11b0 0a3c f497 4d3b 3c41 f33a a4b9 b4bb
00000350: 9964 f1bb a7e7 c8ba 1ee9 a8bc d564 8abb
00000360: 314c 62bc 3ebd 6b3b 9f4b b2bc 7934 0cbb
00000370: cf65 ad3b 61e3 033d 1ab1 07bd 9f12 fbbc
00000380: 0ce8 603b f33e 35bc 127d c93a b9dd 7d3c
00000390: be88 03bd 1eef 1abd 0861 f3bb 7af9 a3bb
000003a0: 8737 27bd 5dbb 41bd 9e13 5ebd ac4f fdbb
000003b0: 15bd 1dbd c05e f1bb cd66 a03b 1b0a 5cbc
000003c0: 3f5d c23b 22e2 20bd 0299 b9bc 0f40 a03a
000003d0: ace1 32bc cbe7 de3b 3add eabc e561 37bb
000003e0: 09b3 cebc 58e1 12ba aa20 35bd 88f8 08bc
000003f0: 490e c6bc 01ed 6e3c c849 943b 38c2 aabb

arith.constant24 f4 [256, 1]
0.07189361 0.0941485 0.06889417 -0.19735415 0.08963284 0.0807198 0.027695986 -0.09752721
0.07722644 -0.18250565 -0.16662289 -0.0538143 0.008094744 -0.00807871 0.03462326 0.07289173
0.16831055 -0.123814896 0.11466161 0.084686786 -0.053945642 -0.026086813 -0.114970416 -0.13123514
0.040339015 -0.18752655 -0.009972867 0.1379427 0.06442868 0.17173025 -0.04779283 -0.1189743
-0.020725632 -0.00089444476 0.10834091 0.048066072 0.07068108 -0.07570125 0.0110384375 -0.239637
0.04536831 0.13254605 -0.09840587 0.033870753 0.19512166 -0.14578013 0.020351185 0.10574843
0.10954455 0.07360828 0.0528908 -0.1398259 0.19788408 0.07859491 0.061928567 -0.04894275
-0.12100981 -0.13670328 0.047494136 0.19530371 -0.12431868 0.044097044 0.13869274 -0.22961424
-0.1274364 -0.09361025 -0.09446096 -0.06682799 0.14216669 -0.15650305 0.09873352 -0.08263064
-0.08482734 -0.1035982 0.13991675 -0.0024832364 -0.06313529 0.15958776 -0.057307884 -0.050052267
0.06898637 0.12259682 0.009448569 0.035464875 0.055974595 -0.10704714 -0.16710706 -0.035348143
-0.09052745 0.1238682 0.03808619 0.04065872 -0.15582845 0.18033582 -0.019764347 -0.078408085
-0.065225996 0.15967588 -0.08678805 -0.08890505 0.052476585 -0.008411302 0.033231597 -0.13913085
0.0742985 0.22913742 -0.22967458 0.13123557 -0.007952567 -0.052206066 -0.051050544 0.05184723
0.061959095 -0.03958123 -0.06975304 0.13018443 0.10834644 -0.19443576 0.16191193 0.036853008
-0.21687932 -0.022935927 -0.06795313 -0.00151766 -0.06874579 -0.017059874 -0.064147234 -0.060876336
-0.011082889 0.069529474 -0.05728139 0.12384575 -0.053006638 -0.12634173 0.12299058 -0.08124077
0.033587594 0.16559479 0.08630359 0.14055665 0.055724774 -0.06988936 -0.022702979 -0.07184704
0.06820977 -0.015001255 0.09700175 -0.025104268 0.026091097 0.11251038 -0.018565286 -0.12639171
0.0374225 0.015312104 -0.044035014 -0.12938021 0.013370558 -0.054413278 0.025682785 -0.09243567
0.10992896 -0.010447815 0.06099799 -0.035884254 0.060875002 0.03190636 -0.009920712 0.1524543
-0.0380027 0.082007304 -0.080777295 0.015113602 0.1481264 0.11013043 0.15516682 -0.09277975
-0.045545824 -0.12695517 -0.12801208 0.00050294463 0.11061339 -0.07780452 0.12955017 0.07810409
-0.1416381 0.059336238 -0.017440388 -0.06365561 0.065205656 -0.030238705 0.006127707 -0.13571131
0.093201704 -0.12871018 0.11162769 0.059006806 -0.12797289 -0.087510005 -0.20101237 0.05904899
-0.005562324 -0.16072991 0.01245505 -0.2017071 -0.11713497 0.108247004 0.09692907 -0.18416357
0.000966715 0.09991127 -0.0668277 0.08898638 -0.034325432 -0.16154677 0.044840798 -0.19776449
-0.05438557 0.10638204 0.05459709 0.14281745 0.050187297 0.06380223 -0.05570538 0.08663524
-0.0577556 -0.04583862 -0.0039035627 0.033581015 -0.005755213 -0.16002434 -0.15884364 -0.18858863
-0.14976788 0.07370398 -0.10122866 0.08848104 0.090223685 -0.2142685 -0.037783366 0.06327372
0.19891162 0.22695002 -0.21277404 0.13840854 0.12988137 0.1230336 0.056294482 -0.010253794
-0.029440448 0.09151567 -0.046783116 0.02337762 0.021135863 -0.0070164693 -0.030399818 -0.072836205
00000000: f53c 933d eed0 c03d 6318 8d3d 3517 4abe
00000010: 6c91 b73d 6c50 a53d b1e2 e23c 59bc c7bd
00000020: e528 9e3d c3e2 3abe 319f 2abe 626c 5cbd
00000030: d19f 043c 915c 04bc 1fd1 0d3d 4248 953d
00000040: 9a59 2c3e aa92 fdbd b5d3 ea3d 4470 ad3d
00000050: 1bf6 5cbd 03b4 d5bc 9c75 ebbd 8162 06be
00000060: 863a 253d f606 40be 3c65 23bc da40 0d3e
00000070: 2ff3 833d 0eda 2f3e 6ac2 43bd cca8 f3bd
00000080: cdc8 a9bc 2c79 6aba d7e1 dd3d eee0 443d
00000090: 3ec1 903d 4209 9bbd 90da 343c 6763 75be
000000a0: 1fd4 393d 27ba 073e 0489 c9bd 0fbc 0a3d
000000b0: f9cd 473e 6347 15be 87b7 a63c a292 d83d
000000c0: e558 e03d f0bf 963d 06a4 583d 852e 0fbe
000000d0: 20a2 4a3e 5ef6 a03d cfa8 7d3d 3178 48bd
000000e0: fed3 f7bd f2fb 0bbe 3689 423d b2fd 473e
000000f0: cb9a febd 1a9f 343d 7805 0e3e ff1f 6bbe
00000100: b07e 02be bbb6 bfbd bf74 c1bd 1ddd 88bd
00000110: 2594 113e 5642 20be cd34 ca3d 413a a9bd
00000120: f5b9 adbd 4b2b d4bd 5646 0f3e cbbd 22bb
00000130: 134d 81bd f96a 233e acbb 6abd 9b03 4dbd
00000140: ba48 8d3d 0b14 fb3d 2cce 1a3c 9e43 113d
00000150: 9e45 653d 883b dbbd 1d1e 2bbe 37c9 10bd
00000160: 7566 b9bd 9cae fd3d 4400 1c3d c289 263d
00000170: 7e91 1fbe f4a9 383e d7e8 a1bc 6b94 a0bd
00000180: 3595 85bd 1382 233e efbd b1bd da13 b6bd
00000190: b0f1 563d 8fcf 09bc db1d 083d 5178 0ebe
000001a0: d029 983d 00a3 6a3e d02f 6bbe 9e62 063e
000001b0: 7c4b 02bc 07d6 55bd 601a 51bd c35d 543d
000001c0: d2c8 7d3d ee1f 22bd afda 8ebd 114f 053e
000001d0: bde4 dd3d 2b1a 47be 3ecc 253e 2ef3 163d
000001e0: 9d15 5ebe 20e4 bbbc 032b 8bbd 38ec c6ba
000001f0: 98ca 8cbd 26c1 8bbc a05f 83bd 7759 79bd
00000200: 0195 35bc 7865 8e3d e49f 6abd d7a2 fd3d
00000210: 7d1d 59bd ba5f 01be 7ce2 fb3d 9061 a6bd
00000220: 2593 093d ae91 293e f0bf b03d 15ee 0f3e
00000230: a93f 643d 2722 8fbd 99fb b9bc 8a24 93bd
00000240: 90b1 8b3d d3c7 75bc daa8 c63d 77a7 cdbc
00000250: ffbc d53c d86b e63d 3a16 98bc d46c 01be
00000260: 5648 193d 9edf 7a3c 0f5e 34bd 3f7c 04be
00000270: 2f10 5b3c 75e0 5ebd b464 d23c ea4e bdbd
00000280: 6f22 e13d 502d 2bbc 07d9 793d 5efb 12bd
00000290: 1158 793d 3eb0 023d 7b8a 22bc fb1c 1c3e
000002a0: b8a8 1bbd 72f3 a73d 916e a5bd 0b9f 773c
000002b0: 72ae 173e 108c e13d 0de4 1e3e 4f03 bebd
000002c0: 428e 3abd 8900 02be 9915 03be 0bd8 033a
000002d0: 4689 e23d fa57 9fbd cda8 043e 0af5 9f3d
000002e0: 9409 11be 8e0a 733d 25df 8ebc df5d 82bd
000002f0: 8b8a 853d 29b7 f7bc efca c83b e8f7 0abe
00000300: 89e0 be3d 9acc 03be 0f9d e43d 1fb1 713d
00000310: 530b 03be 7238 b3bd 30d6 4dbe 5bdd 713d
00000320: 2844 b6bb 6296 24be 4410 4c3c 4e8c 4ebe
00000330: 76e4 efbd 9bb0 dd3d c082 c63d 6095 3cbe
00000340: 256b 7d3a 489e cc3d f6dc 88bd 7e3e b63d
00000350: d398 0cbd 846c 25be fcaa 373d c682 4abe
00000360: 67c3 5ebd d4de d93d 33a1 5f3d bd3e 123e
00000370: 3291 4d3d beaa 823d 532b 64bd d16d b13d
00000380: 2391 6cbd 47c1 3bbd ead2 7fbb 3f8c 093d
00000390: 3a96 bcbb 6cdd 23be e8a7 22be 611d 41be
000003a0: c05c 19be 1df2 963d f950 cfbd 8c35 b53d
000003b0: 32c7 b83d 3469 5bbe bbc2 1abd a795 813d
000003c0: 7daf 4b3e 9665 683e 70e1 59be f8ba 0d3e
000003d0: 9fff 043e 0af9 fb3d 0b95 663d 87ff 27bc
000003e0: 182d f1bc 916c bb3d a79f 3fbd 6c82 bf3c
000003f0: 1e25 ad3c 69ea e5bb 0a09 f9bc 262b 95bd

arith.constant25 f4 [256, 64]
0.10243084 -0.012809825 -0.006515408 -0.07083315 0.050742164 0.066180244 0.09602899 0.0037854563
-0.0011269951 0.08079395 -0.01122281 0.0075633544 0.046765927 0.006651916 -0.016456673 -0.018859193
0.08398064 0.08190138 -0.04483788 -0.0035485548 -0.08463239 0.06790442 -0.14069545 0.0010793321
-0.027297871 -0.029299136 0.06518154 0.057126414 -0.041027654 -0.09861605 0.06004284 0.109757505
0.11069935 0.056087196 -0.056440856 -0.031410728 0.05932717 0.104432136 -0.09634866 0.04779597
-0.027495833 0.03652161 -0.015167344 0.023315394 0.08530399 -0.082991324 -0.01612744 0.018482475
0.111138545 0.024139147 -0.11826723 0.08871016 -0.0361382 0.015257404 0.04085708 0.04561867
0.0014476696 -0.07134349 -0.09127421 0.007117259 -0.027566962 0.060923457 -0.019950615 -0.07475743
-0.043219797 0.042603664 0.060882546 0.0286784 0.054859757 -0.0008672344 0.026004793 0.07989167
-0.019019887 -0.08168355 -0.0034172551 0.10604931 -0.0036792664 0.15633099 -0.06687483 -0.0053541563
0.01123544 0.17547986 0.0029832837 -0.010313354 0.062365703 0.045900807 -0.098202504 -0.07356776
-0.13701409 -0.005568213 -0.04396919 -0.012853951 0.052622985 0.0021190173 0.035923325 -0.047387134
-0.00899758 0.051924717 -0.07742498 0.0030740334 0.05013638 -0.040443428 -0.046928372 0.05603087
-0.047409087 -0.06148452 -0.041044258 -0.01440267 0.009324302 0.07987576 0.017630609 -0.013093729
-0.061543893 0.015616201 0.04366521 -0.027475031 0.05922812 -0.09302263 -0.0017994896 -0.04397592
0.0021694917 -0.0106366165 -0.08507785 0.09288464 -0.08806642 -0.07371118 -0.041264128 -0.0061225216
-0.02699134 -0.06589613 -0.059865024 0.12586667 -0.13688512 -0.007766348 0.040928926 -0.0319202
-0.025603736 0.093347445 0.00730739 0.013569731 -0.025589528 -0.029579919 -0.030814528 -0.12868814
0.16409743 0.09076943 0.006322582 -0.035024576 0.02177365 0.06095258 0.06178513 -0.06517592
-0.033392444 0.06176315 0.034583375 0.020146277 -0.034442324 0.08921464 -0.05717218 -0.026880788
0.037986618 -0.07186721 0.03624737 0.018313626 -0.027081758 0.059222236 0.022951191 -0.063172564
-0.02409565 0.05692615 -0.05421606 0.050818507 0.09931812 0.036254063 0.09453636 -0.013754198
0.079137206 -0.026012909 -0.090409026 0.018529398 0.139158 -0.17554249 0.082778655 0.030621376
0.016891418 -0.013417398 -0.15116474 0.012124737 0.06855128 -0.03218424 -0.036687367 -0.056815684
0.03165925 0.18716162 -0.008352466 -0.103592895 -0.024728281 0.1997878 0.0048710466 0.09976795
0.06662521 0.009764259 -0.09471062 0.061519623 0.16963528 -0.010691611 0.2001135 -0.0014873061
0.09599058 -0.09902375 0.020502197 0.091509886 -0.08233894 -0.057877194 -0.06688103 -0.091389336
0.20919731 0.03240124 -0.009608504 -0.10272969 -0.03864385 0.21872737 0.16866197 -0.0636514
-0.12793262 0.14851284 0.11491268 -0.019463064 0.0011710719 0.037351474 -0.18730709 -0.037834898
-0.09459911 0.056633987 0.002536984 0.1598072 0.0012534513 0.025711987 0.102006674 -0.10436856
0.08531099 -0.04079617 -0.0007443102 0.000105960935 0.17053996 0.054426625 0.13666095 0.06477893
0.021347204 -0.1460823 -0.07431467 -0.040556476 0.12574302 -0.090520985 0.14157401 -0.025964484
00000000: 43c7 d13d 4de0 51bc 347f d5bb f810 91bd
00000010: 04d7 4f3d 8289 873d d9aa c43d 6b15 783b
00000020: aeb7 93ba 4c77 a53d e0df 37bc 04d6 f73b
00000030: a18d 3f3d 51f8 d93b 25d0 86bc 987e 9abc
00000040: 0bfe ab3d e9bb a73d eda7 37bd df8e 68bb
00000050: bf53 adbd 7911 8b3d 7812 10be 6078 8d3a
00000060: c99f dfbc be04 f0bc e67d 853d 63fd 693d
00000070: 9d0c 28bd 36f7 c9bd 7bef 753d 8bc8 e03d
00000080: 57b6 e23d b0bb 653d 872e 67bd 89a8 00bd
00000090: 0c01 733d 84e0 d53d 7252 c5bd b5c5 433d
000000a0: f13e e1bc af97 153d 7480 78bc edff be3c
000000b0: dcb3 ae3d 5bf7 a9bd b11d 84bc 8f68 973c
000000c0: 9b9c e33d 76bf c53c 1736 f2bd acad b53d
000000d0: a605 14bd 31fa 793c c159 273d a4da 3a3d
000000e0: bbbf bd3a 891c 92bd f9ed babd e537 e93b
000000f0: 1cd4 e1bc e08a 793d 796f a3bc 6c1a 99bd
00000100: 3e07 31bd 2e81 2e3d fa5f 793d f7ee ea3c
00000110: a0b4 603d 1e57 63ba 0108 d53c 3e9e a33d
00000120: 98cf 9bbc b449 a7bd 07f4 5fbb 6130 d93d
00000130: d91f 71bb 3b15 203e acf5 88bd eb71 afbb
00000140: da14 383c feb0 333e 3283 433b 58f9 28bc
00000150: 2e73 7f3d 7c02 3c3d 651e c9bd b2aa 96bd
00000160: 6c4d 0cbe 8e75 b6bb 0a19 34bd 6199 52bc
00000170: 338b 573d 36df 0a3b 5624 133d 0319 42bd
00000180: 966a 13bc 03af 543d fd90 9ebd b975 493b
00000190: ce5b 4d3d 02a8 25bd f737 40bd a080 653d
000001a0: 0830 42bd 31d7 7bbd 061e 28bd 2df9 6bbc
000001b0: f5c4 183c e795 a33d 116e 903c 1487 56bc
000001c0: 7315 7cbd 18db 7f3c 4bda 323d 5113 e1bc
000001d0: 2f99 723d a682 bebd dadc ebba 1820 34bd
000001e0: 082e 0e3b 3445 2ebc 4c3d aebd 4d3a be3d
000001f0: 2b5c b4bd e3f5 96bd 9304 29bd 6f9f c8bb
00000200: f11c ddbc 8df4 86bd 0735 75bd 31e3 003e
00000210: 9d2b 0cbe d97c febb 17a5 273d c1be 02bd
00000220: edbe d1bc f22c bf3d d572 ef3b 9453 5e3c
00000230: 21a1 d1bc 9651 f2bc c06e fcbc d3c6 03be
00000240: 2809 283e 53e5 b93d a92d cf3b ee75 0fbd
00000250: a75e b23c 6aa9 793d 6812 7d3d f47a 85bd
00000260: 84c6 08bd 5bfb 7c3d 4ca7 0d3d ce09 a53c
00000270: 6513 0dbd 2ab6 b63d 602d 6abd 1935 dcbc
00000280: db97 1b3d 1e2f 93bd 1f78 143d 7506 963c
00000290: 90da ddbc 0493 723d 2304 bc3c 9e60 81bd
000002a0: 3e64 c5bc 652b 693d a911 5ebd 1127 503d
000002b0: 4c67 cb3d 247f 143d 479c c13d 4a59 61bc
000002c0: b012 a23d 0619 d5bc 5e28 b9bd f7ca 973c
000002d0: 6f7f 0e3e 69c1 33be db87 a93d aed9 fa3c
000002e0: df5f 8a3c a5d4 5bbc eeca 1abe d5a6 463c
000002f0: 9d64 8c3d 9fd3 03bd 7e45 16bd 90b7 68bd
00000300: 21ad 013d 4ca7 3f3e c8d8 08bc 8328 d4bd
00000310: f792 cabc 2c95 4c3e 4d9d 9f3b 2453 cc3d
00000320: cc72 883d 45fa 1f3c a4f7 c1bd 00fc 7b3d
00000330: dfb4 2d3e de2b 2fbc 8eea 4c3e b6f1 c2ba
00000340: b696 c43d f7cc cabd 39f4 a73c 8969 bb3d
00000350: 51a1 a8bd a310 6dbd ecf8 88bd 552a bbbd
00000360: d237 563e 2ab7 043d fd6c 1dbc f263 d2bd
00000370: 0349 1ebd 11fa 5f3e b9b5 2c3e aa5b 82bd
00000380: c500 03be c013 183e 5757 eb3d 0171 9fbc
00000390: a77e 993a dcfd 183d 6ecd 3fbe c4f8 1abd
000003a0: 2ebd c1bd 0af9 673d 8743 263b 80a4 233e
000003b0: d94a a43a f2a1 d23c e0e8 d03d 2fbf d5bd
000003c0: 87b7 ae3d e219 27bd d01d 43ba 5837 de38
000003d0: 07a2 2e3e 74ee 5e3d d9f0 0b3e d1aa 843d
000003e0: 55e0 ae3c 9996 15be 4a32 98bd 8c1e 26bd
000003f0: c7c2 003e 1163 b9bd c7f8 103e 78b3 d4bc

sequential_1/bidirectional_1/forward_lstm_1/while/lstm_cell_1/add_1/ReadVariableOp f4 [256]
-0.048446216 -0.0052275793 -0.00018162723 0.007485455 -0.009651962 0.011366184 -0.02552236 -0.02051721
-0.06480214 0.0013501742 0.0059127724 -0.009699042 -0.034231316 -0.04804438 -0.0068390574 -0.008444696
0.006706403 0.005700275 -0.003323636 -0.045721147 -0.04598599 0.010581511 -0.029435728 -0.026274225
-0.0018610688 0.0009848147 -0.01102534 -0.018439688 0.0049554165 -0.021050526 -0.015684256 -0.021236787
-0.01749973 -0.02019436 -0.0151053 -0.00037327642 -0.07034959 0.0018558776 -0.0128180655 0.018634219
-0.010048218 -0.036091343 -0.023775678 -0.010094676 -0.02484332 0.0075628655 -0.0046904883 -9.570732e-05
-0.0045203976 -0.010433456 -0.010641714 -0.015620648 -0.050449047 0.008063265 -0.03085579 -0.0164547
-0.006366704 -0.002797863 -0.017446982 -0.052509833 -0.011778439 -0.033766065 -0.014279219 -0.023094209
0.9533192 0.9916854 0.9996338 1.0209638 0.9753052 0.9640702 0.95675224 0.98570204
0.9561566 0.9797026 0.98163015 0.97058403 0.9695867 0.9728523 0.9908443 0.97824454
1.0104822 1.0050601 0.98451424 0.9533314 0.9656783 0.9833903 0.9683935 0.98030037
0.9981859 0.99865603 0.98177934 0.9850522 0.99894154 0.9761065 0.98454434 0.97880906
0.94928825 0.9794941 0.9903352 0.98741615 0.9410185 0.9945734 0.9869436 0.9638203
0.98225826 0.9990758 0.97839797 0.990854 0.96949387 0.9967394 0.98004997 1.0037539
0.9884881 0.9727954 0.965336 0.9879696 0.99156165 0.9994993 0.9716154 0.9610648
0.9824981 0.99536955 0.9795484 0.9887793 0.98782086 0.9548633 0.9872281 0.9804063
0.0075165774 0.03450649 -0.02370986 0.034696735 0.02358225 0.022457948 0.0062941727 0.029754687
-0.009955257 0.03424952 -0.028742626 0.03479566 0.0018820607 -0.018410547 0.019995028 0.023546467
0.03053544 -0.0146777695 0.025025016 -0.009775323 0.007590197 -0.024814863 0.013069215 0.02245335
0.0317905 0.028331025 -0.023509908 -0.029712932 -0.031219633 0.018163046 0.015497917 0.01404039
0.007385083 -0.02483778 0.036060464 0.030072736 -0.005998483 -0.026288347 0.03273189 0.019992493
0.023971945 -0.01673211 0.01328757 0.014296445 -0.021929082 -0.031227745 -0.03804505 -0.02738947
0.032036766 -0.015357886 0.003873078 -0.010969709 -0.043568276 0.028249042 0.0091899475 0.0056214347
0.015159898 0.021630686 -0.025494758 0.008615597 -0.006842188 0.024306258 0.021922095 0.009048849
-0.048814923 -0.008852458 -6.807648e-05 0.04762724 -0.011994167 -0.009388193 -0.038748845 -0.013700882
-0.061789323 -0.0041146795 0.013586068 -0.0221826 -0.031791784 -0.049534637 -0.0048368103 -0.017395927
0.012548447 0.0046452787 -0.009346957 -0.045887187 -0.04296042 0.0059165233 -0.027114414 -0.024496563
-0.0045730667 0.0020862233 -0.008798251 -0.020898974 0.004287872 -0.024379563 -0.015848797 -0.014815881
-0.025490467 -0.020226154 -0.017617065 -0.0015424889 -0.06437209 0.00050518755 -0.013706747 0.02767801
-0.011999752 -0.011461736 -0.022318762 -0.009760803 -0.015003581 0.006702097 0.0057871123 -0.0045459825
-0.006999713 -0.018876469 -0.029935256 -0.017744673 -0.013100462 0.0052111177 -0.013340099 -0.016046463
0.0011241715 0.0058067297 -0.018331723 -0.029969124 -0.016957255 -0.03142449 -0.012948119 -0.0061002783
00000000: 8a6f 46bd 1d4c abbb 3073 3eb9 8c48 f53b
00000010: 4323 1ebc 3b39 3a3c 4514 d1bc b513 a8bc
00000020: fcb6 84bd 54f8 b03a eebf c13b bbe8 1ebc
00000030: 2336 0cbd 2fca 44bd 2c1a e0bb 9f5b 0abc
00000040: 63c1 db3b 5fc9 ba3b 5cd1 59bb 1946 3bbd
00000050: ce5b 3cbd 135e 2d3c 3223 f1bc 0b3d d7bc
00000060: 1bef f3ba e614 813a a1a3 34bc d40e 97bc
00000070: 0c61 a23b 2772 acbc 457c 80bc c5f8 adbc
00000080: 985b 8fbc a46e a5bc 387c 77bc 50b4 c3b9
00000090: 7213 90bd eb40 f33a dd02 52bc caa6 983c
000000a0: 48a1 24bc 84d4 13bd 36c5 c2bc 2464 25bc
000000b0: 3884 cbbc ead1 f73b abb2 99bb 7ab6 c8b8
000000c0: d81f 94bb 16f1 2abc 955a 2ebc bfed 7fbc
000000d0: a9a3 4ebd c91b 043c 48c5 fcbc 02cc 86bc
000000e0: c99f d0bb 5a5c 37bb f9ec 8ebc 8d14 57bd
000000f0: 5bfa 40bc 494e 0abd 63f3 69bc 1130 bdbc
00000100: ba0c 743f 18df 7d3f 00e8 7f3f f1ae 823f
00000110: 9aad 793f 4ecd 763f b7ed 743f f856 7c3f
00000120: aec6 743f cacd 7a3f 1d4c 7b3f 3278 783f
00000130: d536 783f d90c 793f f9a7 7d3f 3c6e 7a3f
00000140: 7b57 813f cfa5 803f 2009 7c3f 870d 743f
00000150: b136 773f 77bf 7b3f a3e8 773f f7f4 7a3f
00000160: 1c89 7f3f eca7 7f3f e455 7b3f 622c 7c3f
00000170: a2ba 7f3f 1ee2 793f 190b 7c3f 3b93 7a3f
00000180: 8e04 733f 20c0 7a3f 9c86 7d3f 4ec7 7c3f
00000190: 97e6 703f 5d9c 7e3f 56a8 7c3f edbc 763f
000001a0: 4775 7b3f 6ec3 7f3f 4a78 7a3f 9ca8 7d3f
000001b0: c030 783f 502a 7f3f 8ee4 7a3f 027b 803f
000001c0: 8e0d 7d3f 1f09 793f 4320 773f 93eb 7c3f
000001d0: fcd6 7d3f 30df 7f3f c9bb 783f 5808 763f
000001e0: ff84 7b3f 8ad0 7e3f afc3 7a3f a420 7d3f
000001f0: d4e1 7c3f ec71 743f fbba 7c3f e8fb 7a3f
00000200: 9f4d f63b ad56 0d3d 2e3b c2bc 2a1e 0e3d
00000210: 902f c13c bbf9 b73c 593f ce3b 1ac0 f33c
00000220: 601b 23bc 3a49 0c3d a875 ebbc e585 0e3d
00000230: 7aaf f63a b7d1 96bc 9dcc a33c 85e4 c03c
00000240: 7625 fa3c 077b 70bc 4301 cd3c ad28 20bc
00000250: 30b7 f83b 8a48 cbbc 4320 563c 16f0 b73c
00000260: c136 023d 7716 e83c da97 c0bc 8968 f3bc
00000270: 51c0 ffbc abca 943c faea 7d3c aa09 663c
00000280: 91fe f13b 9a78 cbbc 23b4 133d 195b f63c
00000290: ec8e c4bb a95a d7bc e011 063d 4cc7 a33c
000002a0: d060 c43c c711 89bc 1cb4 593c a33b 6a3c
000002b0: 9ea4 b3bc 54d1 ffbc 20d5 1bbd e25f e0bc
000002c0: fc38 033d a59f 7bbc 77d3 7d3b 4bba 33bc
000002d0: a674 32bd 896a e73c 6f91 163c 0334 b83b
000002e0: 3961 783c d632 b13c 62da d0bc 6f28 0d3c
000002f0: 6f34 e0bb eb1d c73c f795 b33c a041 143c
00000300: 28f2 47bd e609 11bc 48c4 8eb8 c814 433d
00000310: 2f83 44bc efd0 19bc 1cb7 1ebd aa79 60bc
00000320: cd16 7dbd 6fd4 86bb 1998 5e3c 49b8 b5bc
00000330: 1a38 02bd d5e4 4abd 1b7e 9ebb e781 8ebc
00000340: 0098 4d3c 6c37 983b fb23 19bc 34f4 3bbd
00000350: 44f7 2fbd 65df c13b 0c1f debc 04ad c8bc
00000360: aad9 95bb 05b9 083b 8a26 10bc 5334 abbc
00000370: 4781 8c3b a6b7 c7bc 56d5 81bc 4fbe 72bc
00000380: 62d1 d0bc 52b1 a5bc aa51 90bc 572d caba
00000390: 84d5 83bd 906e 043a 4492 60bc febc e23c
000003a0: 9c9a 44bc 01ca 3bbc d6d5 b6bc c6eb 1fbc
000003b0: 94d1 75bc 449d db3b d1a1 bd3b 77f6 94bb
000003c0: d95d e5bb d3a2 9abc c83a f5bc 475d 91bc
000003d0: 52a3 56bc 06c2 aa3b 6e90 5abc df73 83bc
000003e0: f058 933a 6146 be3b 692c 96bc cf81 f5bc
000003f0: f1e9 8abc f7b6 00bd 5924 54bc d8e4 c7bb
